app/src/main/assets/aegis_oww.tflite (tflite, 24104 bytes, 17 tensors)

arith.constant f4 [64]
0	0x3c545e4a	0.012961933
1	0xbcf29ded	-0.02961632
2	0x3cd7b3ad	0.026330793
3	0x3d065c02	0.03280259
4	0x3cd21fe0	0.025649965
5	0x3cd39b0c	0.025830768
6	0x3cb01259	0.021493124
7	0x3c8bada5	0.017050574
8	0x3cb97f58	0.02264373
9	0xbba19c80	-0.0049319863
10	0x3d854af1	0.065084346
11	0x3c986861	0.01860446
12	0xba78066a	-0.0009461405
13	0x3c252a13	0.010080832
14	0x3ca855e2	0.020548765
15	0x3cfca151	0.03083864
16	0x3d25e3c0	0.040500402
17	0xbc18a402	-0.009316446
18	0x3c69f167	0.014278746
19	0x3d4e8c55	0.0504268
20	0xbc9549ee	-0.018223729
21	0x3cea4b11	0.028600248
22	0x3ca37caf	0.019956915
23	0x3ceaf0ff	0.028679369
24	0x3cc9f569	0.024653153
25	0x3d133e57	0.035948124
26	0x3c07113c	0.008243855
27	0x3ce6c98e	0.02817228
28	0x3d03faa8	0.032221466
29	0xbc530606	-0.012879854
30	0xbc89d15f	-0.016823469
31	0x3c1b7296	0.009487769
32	0xbc475904	-0.012167219
33	0x3c40740a	0.011746416
34	0xbcba9777	-0.022777302
35	0xbd2ac0db	-0.041687828
36	0xbcf938b9	-0.030422555
37	0x3c9cd7ea	0.019145925
38	0x3d14ddf2	0.036344476
39	0xbcf8ba33	-0.030362224
40	0x3d07ed56	0.033185326
41	0x3bbee449	0.0058255536
42	0xbc8fb0ac	-0.017540298
43	0xbbc08c64	-0.005876111
44	0x3b15c4d3	0.0022852912
45	0xbbfac7b9	-0.0076532033
46	0x3c8bb86a	0.017055709
47	0x3d1057ce	0.035239987
48	0x3d9154fe	0.07096289
49	0xbbab10da	-0.0052205147
50	0x3cf5d1b8	0.030007228
51	0xbc658300	-0.014008284
52	0xbc27fef6	-0.0102536585
53	0x39540598	0.0002021998
54	0x3c170651	0.009217815
55	0x3ba8447f	0.0051351185
56	0x3d274162	0.04083384
57	0x3c27dc8d	0.0102454545
58	0x3bcecf01	0.006311298
59	0x3ca3720d	0.019951845
60	0xbcfdcdb2	-0.030981872
61	0x3c46c1f6	0.012131205
62	0xbc7effe5	-0.01556394
63	0xbb90437f	-0.0044025774

arith.constant1 f4 [32]
0	0xbcc8ed71	-0.024527283
1	0x3ba6d06e	0.0050907647
2	0xbc9a34f0	-0.01882407
3	0xbd23e6f1	-0.040015165
4	0xbbaf305c	-0.005346341
5	0x3cd2b0e3	0.025719112
6	0xbd5c9332	-0.053851314
7	0x3bfa67b7	0.0076417583
8	0xbbdfab1b	-0.0068258173
9	0x3bb1058c	0.0054022726
10	0x3c3286d5	0.010896404
11	0xbca0cb3e	-0.019628163
12	0x3d8995c9	0.067180224
13	0xbcce3ed8	-0.02517645
14	0x3cf2eb84	0.029653318
15	0xbc8587d2	-0.016300116
16	0x3c97280e	0.018451717
17	0xbc10c1e8	-0.008835293
18	0x39723f7d	0.0002310257
19	0xbbfc9d0a	-0.00770915
20	0x3d72231f	0.059115525
21	0xbc431ef9	-0.01190924
22	0x3ba1eba2	0.0049414197
23	0x3c6f3f76	0.014602533
24	0x3d202b07	0.039103534
25	0x3c1d9a31	0.009619282
26	0xbbdff177	-0.006834205
27	0xbcdbecf0	-0.026846379
28	0xbb509ac5	-0.003183053
29	0xbb622057	-0.003450414
30	0x3b1ebb07	0.0024220364
31	0xba93cb42	-0.0011275786

arith.constant2 f4 [16]
0	0x3cda5dc4	0.026656039
1	0x3d9126b0	0.07087457
2	0x3c6614bf	0.014043032
3	0x3c305beb	0.010764102
4	0xbce7471b	-0.028232148
5	0x3c12ec3d	0.008967456
6	0x3c311df9	0.010810369
7	0xbc2e80c3	-0.010650816
8	0x3cc3ae4f	0.023886828
9	0xbc18c65a	-0.009324634
10	0x3bf441d7	0.007454138
11	0x3c330aaa	0.0109278355
12	0x3ce32140	0.027725816
13	0xbc6c328c	-0.014416348
14	0x3c26bbce	0.010176612
15	0x3c2d868a	0.010591159

arith.constant6 f4 [64, 1, 1, 32]
0	0x3d92750f	0.071512334
1	0x3b0b8235	0.0021287326
2	0x3da0f51b	0.0785925
3	0xbe01c0f7	-0.12671266
4	0x3d2204a9	0.039555226
5	0xbdc2cac0	-0.09511328
6	0xbc954230	-0.018220037
7	0x3e024707	0.12722407
8	0xbe0ef843	-0.13961892
9	0x3e2dfb00	0.1699028
10	0x3d80c991	0.06288446
11	0xbd518533	-0.05115242
12	0x3db4e437	0.08832591
13	0xbdb9a7c9	-0.090652056
14	0x3d93d4a8	0.07218295
15	0x3d361780	0.044456005
16	0xbe355dbb	-0.17711537
17	0x3af04c06	0.0018333204
18	0x3e246aa9	0.16056313
19	0x3e2e01d5	0.16992886
20	0xbc78f58f	-0.0151952645
21	0x3dd10677	0.10206311
22	0x3e9d0a99	0.30672148
23	0xbe4cb378	-0.19990337
24	0x3e503f4a	0.20336643
25	0xbdd94dd6	-0.10610549
26	0xbd16df73	-0.03683419
27	0x3be9b742	0.0071324417
28	0x3e3b9660	0.18319082
29	0x3e66a0b0	0.22522235
30	0xbd03879e	-0.032111757
31	0x3d65c4da	0.056095935
32	0x3e1813f6	0.14851364
33	0xbe645845	-0.22299297
34	0x3df2990a	0.11845596
35	0x3dedfbbd	0.11620281
36	0xbe959d93	-0.29221782
37	0xbdd181ed	-0.102298595
38	0x3e74606b	0.23864906
39	0x3db5e2f7	0.08881181
40	0xbe244b77	-0.16044413
41	0xbe2022b2	-0.15638235
42	0xbe484e7d	-0.19561191
43	0xbd361d11	-0.044461314
44	0xbe74fcaa	-0.23924509
45	0x3df2a732	0.11848296
46	0x3d9a100a	0.075225905
47	0xbcfc2974	-0.030781485
48	0xbd53c67f	-0.051702973
49	0x3e24fed2	0.16112831
50	0x3ddcf8b4	0.10789624
51	0x3dcc9f51	0.09991325
52	0x3e076dbf	0.13225459
53	0xbe2d443a	-0.16920558
54	0xbd90780f	-0.07054149
55	0xbd9c84ac	-0.07642493
56	0x3d914640	0.07093477
57	0xbe83accb	-0.25717768
58	0xbdeed487	-0.1166163
59	0xbdfcedf1	-0.12350071
60	0xbe307865	-0.17233427
61	0x3c784f85	0.015155678
62	0x3e64c117	0.22339283
63	0x3e495b8b	0.19663827
64	0x3d06247b	0.032749634
65	0x3e5237e5	0.20529135
66	0x3e27427f	0.1633396
67	0x3e2d4b0d	0.16923161
68	0x3dc10077	0.09423917
69	0xbe619000	-0.22027588
70	0x3d205b55	0.0391496
71	0x3dc8bf86	0.09802155
72	0x3e5b6c2d	0.21427985
73	0x3e4b613b	0.19861309
74	0xbe6e173a	-0.23251048
75	0xbd0d2805	-0.034461994
76	0xbe4ee2e9	-0.20203747
77	0xbdf7aa5a	-0.12093039
78	0xbdc3ebd0	-0.09566462
79	0x3e023699	0.1271614
80	0xbe1d94cc	-0.15388793
81	0x3e81a59e	0.25321668
82	0x3dec1730	0.1152786
83	0xbe3d3748	-0.1847812
84	0xbe140139	-0.14453591
85	0x3d0c548d	0.03426032
86	0x3e5486b9	0.20754518
87	0xbdd56506	-0.10419659
88	0x3e3fc376	0.18726906
89	0x3dbfee27	0.09371596
90	0xbe6c44c2	-0.23073104
91	0x3e5bc1be	0.21460626
92	0x3e013074	0.1261614
93	0xbd818c20	-0.06325555
94	0x3d6c3f38	0.057677478
95	0x3db65f78	0.08904928
96	0xbe52dd68	-0.20592272
97	0x3d2f8c59	0.042858455
98	0x3d9f0ee6	0.077665135
99	0x3d12d886	0.035851024
100	0x3e05b60f	0.13057731
101	0xbb6d7159	-0.003623089
102	0xbd3ee2a6	-0.046602868
103	0x3e2d8a57	0.16947304
104	0x3da38baf	0.07985627
105	0xbd2bf698	-0.041983217
106	0xbe278aab	-0.16361491
107	0x3e2eeec7	0.17083274
108	0x3db21eae	0.08697258
109	0x3e0bcca4	0.13652283
110	0x3e06a10f	0.13147376
111	0x3e0c4dd2	0.13701561
112	0x3d4db13d	0.050217856
113	0xbdaf40d8	-0.0855729
114	0x3d067769	0.032828722
115	0xbcb4e48d	-0.022081638
116	0xbe2198fa	-0.15781012
117	0x3e582142	0.21106437
118	0x3e4a57b5	0.1976002
119	0xbe845f85	-0.25854126
120	0x3e68411e	0.2268109
121	0x3c51f3c3	0.012814465
122	0xbdcfd49c	-0.10147974
123	0xbe5b5ce7	-0.21422158
124	0xbe0c9f29	-0.1373259
125	0x3c54ab8d	0.012980354
126	0xbdc79131	-0.0974449
127	0xbe422fd9	-0.18963565
128	0xbe8d308a	-0.27576095
129	0xbe54770c	-0.20748538
130	0x3e6c8a18	0.23099554
131	0xbe2af3f9	-0.1669463
132	0xbed405f7	-0.414108
133	0x3e476091	0.19470431
134	0x3daf98fc	0.08574101
135	0x3e05405e	0.13012835
136	0x3d80be46	0.06286292
137	0x3d9a8124	0.07544163
138	0x3e0b00ac	0.13574475
139	0xbd278193	-0.040895056
140	0x3e68f9e1	0.22751571
141	0xbe09196d	-0.13388605
142	0xbe17257c	-0.14760393
143	0x3b1e74d5	0.0024178524
144	0x3c3cf66c	0.011533361
145	0x3e208851	0.15677
146	0x3e05b195	0.13056023
147	0x3e64fd9a	0.22362366
148	0xbe70562f	-0.23470376
149	0xbe070a62	-0.13187554
150	0xbe0d98e4	-0.13827854
151	0x3e21bd8f	0.15794967
152	0xbe782b5d	-0.24235292
153	0xbe9c0c72	-0.30478245
154	0x3d8e7013	0.0695497
155	0x3e1018bb	0.14071934
156	0xbc82e56a	-0.015978534
157	0x3c9dda02	0.019268993
158	0xbe18850b	-0.14894502
159	0xbcdfaa3d	-0.027302856
160	0xbcbbb7ff	-0.022914885
161	0x3e585ed5	0.21129926
162	0x3e84c0ea	0.25928432
163	0xbdbde82c	-0.09272799
164	0x3e5b4447	0.21412764
165	0x3e2407aa	0.16018549
166	0x3da08a96	0.07838933
167	0x3e004fad	0.12530394
168	0x3dedd129	0.1161216
169	0xbdb722f8	-0.08942217
170	0xbe5567b8	-0.20840347
171	0xbdf46075	-0.1193246
172	0x3d2b0f1c	0.041762456
173	0xbda864b0	-0.082223296
174	0x3e462264	0.19349056
175	0xbd2c5e13	-0.042081904
176	0x3d05ec6a	0.032696165
177	0xbdf9c68a	-0.121960714
178	0x3db30cfa	0.087427095
179	0xbe3e2d35	-0.18571933
180	0x3d05d01a	0.032669164
181	0x3e52138f	0.20515274
182	0x3e8164eb	0.25272307
183	0xbb53e775	-0.0032334004
184	0x3e0a1e9a	0.13488236
185	0xbd45eb9f	-0.04832041
186	0xbd836bc6	-0.064170405
187	0xbc89b7c0	-0.016811252
188	0xbe3a3568	-0.18184435
189	0xbdb02c39	-0.08602185
190	0x3e2679c5	0.16257389
191	0x3e009e9f	0.12560509
192	0xbd97f75f	-0.07420229
193	0xbc5204ef	-0.012818559
194	0x3d2864f8	0.041111916
195	0xbdff3972	-0.12462129
196	0xbd662930	-0.056191623
197	0xbe65ddd7	-0.22447906
198	0xbda13461	-0.078713186
199	0x3e421978	0.18955028
200	0x3e1658c3	0.14682297
201	0xbdcbfa44	-0.09959844
202	0xbe0e4d58	-0.13896692
203	0xbe1b6973	-0.15176944
204	0x3d50580a	0.05086521
205	0x3e023f70	0.12719512
206	0x3e3f573b	0.1868562
207	0xbe257ec4	-0.16161638
208	0xbe1df053	-0.15423708
209	0x3dfe36d5	0.12412802
210	0x3db253b7	0.087073736
211	0x3cb106ba	0.021609653
212	0xbe9cec18	-0.30648875
213	0x3d9eab6b	0.07747539
214	0x3eb7ad2d	0.3587431
215	0x3e209832	0.15683058
216	0x3df6bc8f	0.120476834
217	0x3c5555c7	0.013020939
218	0x3e2307be	0.15920922
219	0xbda3412a	-0.079714134
220	0x3da624b2	0.08112468
221	0x3e8c5e80	0.27415848
222	0x3de11656	0.10990588
223	0xbd8f3a37	-0.069935255
224	0xbe0f6600	-0.14003754
225	0x3cd2154e	0.025644924
226	0x3d6da10c	0.058014914
227	0x3e10f58d	0.1415617
228	0x3d2bbbfd	0.041927326
229	0xbe1cf980	-0.15329552
230	0xbde8c41b	-0.11365529
231	0x3e07c422	0.13258412
232	0xbd0684a6	-0.032841347
233	0x3e754d26	0.23955211
234	0x3e17df36	0.14831242
235	0xbcbbe084	-0.022934206
236	0x3e59ce2f	0.21270059
237	0xbe15ec58	-0.14640939
238	0xbe2c938c	-0.1685316
239	0x3e4ecdfb	0.20195763
240	0x3dfc7d74	0.12328616
241	0x3e759757	0.23983513
242	0x3e694826	0.22781429
243	0xbd808220	-0.062748194
244	0xbe0024f6	-0.125141
245	0x3d526867	0.051369097
246	0x3e2e2dff	0.17009734
247	0xbe04dd10	-0.12974954
248	0x3e3f02d2	0.1865342
249	0xbd1c977f	-0.038230415
250	0xbe46a8ff	-0.19400404
251	0xbe3382ff	-0.1753044
252	0xbe4d3bb2	-0.20042303
253	0x3da001e3	0.0781286
254	0xbba8c013	-0.00514985
255	0xbe5e7fad	-0.21728392

arith.constant7 f4 [1, 1, 9, 32]
0	0xbd9fc0b5	-0.07800428
1	0xbc85eca8	-0.016348198
2	0xbd5372cf	-0.051623162
3	0xbd7a5fec	-0.061126634
4	0xbe15297d	-0.14566608
5	0xbc6bb3dc	-0.014386144
6	0x3e5421a7	0.20715962
7	0x3e36027d	0.17774387
8	0x3d4d97e5	0.050193686
9	0xbdebd78c	-0.11515722
10	0x3dc15672	0.09440316
11	0xbda36fc5	-0.07980303
12	0x3bd45e71	0.006480985
13	0x3d082870	0.03324169
14	0x3dc09842	0.09404041
15	0x3da5d433	0.080971144
16	0x3c01d9b0	0.007925436
17	0x3d8bcd01	0.06826211
18	0x3d14e0a1	0.036347035
19	0x3dbcc6e5	0.092176236
20	0x3d8c7224	0.06857708
21	0x3b805236	0.0039160503
22	0x3e5da181	0.2164364
23	0x3dc808d9	0.097673126
24	0xbd4f2aec	-0.050578043
25	0x3d4595cb	0.048238557
26	0x3da68561	0.08130909
27	0x3db7589e	0.08952449
28	0x3d3b176d	0.045676637
29	0xbc56e695	-0.0131164985
30	0xbdf7701d	-0.12081931
31	0xbd995aa4	-0.074879915
32	0x3a3f919a	0.0007307768
33	0xbd3e73e5	-0.046497244
34	0xbd92b679	-0.0716371
35	0x3db240bc	0.08703753
36	0xbd8556ad	-0.06510673
37	0xbd179b9b	-0.03701363
38	0x3d5389af	0.051644977
39	0x3e23bfdc	0.15991157
40	0xbdbd0368	-0.09229165
41	0xbdbf2580	-0.093333244
42	0xbd0715f9	-0.03297994
43	0x3dc1b4c0	0.094583035
44	0xbd992c51	-0.07479156
45	0x3dacc8b6	0.0843672
46	0x3ddf5043	0.109039806
47	0x3d0ffa8c	0.03515105
48	0x3dea06c7	0.11427074
49	0xbdf01770	-0.1172322
50	0xbd93bf7b	-0.072142564
51	0xbd15a1cb	-0.03653125
52	0xbce7e21c	-0.02830606
53	0xbc9ae377	-0.018907292
54	0x3e096e2b	0.13420932
55	0x3de53b9f	0.111930124
56	0xbd7826b6	-0.060583793
57	0xbcebb34b	-0.028772017
58	0xbdf86418	-0.12128466
59	0x3b6bec18	0.0035998877
60	0x3cdfdb3f	0.027326224
61	0x3e12a5bf	0.1432104
62	0x3dc92886	0.09822182
63	0x3decbfe0	0.11560035
64	0xbe3899e3	-0.18027453
65	0xbdad20f3	-0.0845355
66	0x3ce85c4d	0.028364325
67	0x3d6ee1a0	0.05832064
68	0xbddf9aed	-0.109182216
69	0x3d814ae7	0.063131146
70	0x3e09e7e6	0.13467368
71	0x3e241e3a	0.16027156
72	0x3d36ef4e	0.044661812
73	0xbe011395	-0.12605126
74	0xbd01b7c8	-0.031669408
75	0x3d7e6561	0.0621084
76	0xbdec5712	-0.11540045
77	0xbc6583f5	-0.014008512
78	0xbd67858d	-0.05652385
79	0xbdca8962	-0.09889485
80	0x3c962d33	0.0183321
81	0xbdc21f83	-0.09478667
82	0x3da6a571	0.08137024
83	0x3dbaa868	0.09114152
84	0x3e0d4fda	0.13799992
85	0xbdd725b7	-0.105052404
86	0x3d659feb	0.056060713
87	0xbd1dc545	-0.03851821
88	0xbd15cde5	-0.03657331
89	0x3d9e53ec	0.077308506
90	0xbde2df79	-0.1107778
91	0xbd6e3a40	-0.05816102
92	0x3b6a1b9e	0.0035722028
93	0x3da8fc14	0.08251205
94	0xbd9fe8bd	-0.07808063
95	0x3e28971a	0.1646389
96	0x3dea2771	0.11433304
97	0x3c77592a	0.015096942
98	0xbd3680f6	-0.04455658
99	0xbdcfd54f	-0.10148107
100	0xbdc2396d	-0.09483609
101	0xbd778807	-0.06043246
102	0x3e0ed192	0.13947132
103	0x3de15ee6	0.110044286
104	0x3d3e6fec	0.046493456
105	0xbe04bd92	-0.1296294
106	0x3e04ec11	0.12980677
107	0xbb8f60ea	-0.0043755667
108	0xbc91330b	-0.017724534
109	0x3d217673	0.039419603
110	0x3d19d5df	0.03755748
111	0xbddc15cb	-0.10746344
112	0xbd445580	-0.0479331
113	0xb964bd2f	-0.00021814251
114	0x3d2267f3	0.039649915
115	0x3da60124	0.08105686
116	0xbd573541	-0.05254102
117	0xbdbfc1da	-0.09363146
118	0x3e4d208c	0.20031947
119	0xbdbe788c	-0.09300336
120	0xbcd4a3e2	-0.025957052
121	0x3bade40b	0.005306726
122	0xbc92f8c0	-0.017940879
123	0x3daf15eb	0.085491024
124	0xbdd01360	-0.101599455
125	0x3d8f5401	0.06998444
126	0xbcd71931	-0.02625713
127	0x3db3f548	0.08787018
128	0xbd1aaba1	-0.037761334
129	0x3dd6a64a	0.10480936
130	0xbd95f5f5	-0.07322303
131	0xbdca1986	-0.098681495
132	0xbe2df368	-0.16987383
133	0xbd939c2b	-0.07207521
134	0x3c363e42	0.011123242
135	0x3d2f9e7a	0.042875744
136	0xbdec3cbf	-0.11535024
137	0xbd5570e4	-0.052109614
138	0xbe03440d	-0.12818928
139	0x3d6ce0ff	0.05783176
140	0x3da555d3	0.0807301
141	0x3c732c2d	0.014842075
142	0xbd9692e1	-0.07352234
143	0x3ddc785a	0.10765143
144	0xbdb3ea4c	-0.08784923
145	0xbd6f4ef3	-0.0584249
146	0x3da4c182	0.08044721
147	0xba91472b	-0.0011083832
148	0xbd40b460	-0.04704702
149	0x3d551d23	0.05202974
150	0x3e7ccedc	0.24688286
151	0xbceb60e2	-0.02873272
152	0xbd587a90	-0.05285126
153	0x3c9f239a	0.019426156
154	0x3d3dbbd8	0.04632172
155	0xbdb5cd3a	-0.088770345
156	0xbd2a8951	-0.04163486
157	0xbd3bc46e	-0.045841627
158	0xbd880be3	-0.06642892
159	0xbc9a806b	-0.018860063
160	0xbc74b846	-0.014936512
161	0x3b87036e	0.004120282
162	0xbc66fd18	-0.014098428
163	0x3cc07c31	0.02349672
164	0x3a6a3986	0.0008934963
165	0x3d982091	0.074280865
166	0x3d80ade2	0.062831655
167	0x3dc1a722	0.09455706
168	0x3d5214b5	0.05128928
169	0x3d2bc962	0.0419401
170	0x3e05d714	0.13070327
171	0xbdabff64	-0.08398321
172	0x3d85d09f	0.06533932
173	0x3c42d87f	0.011892437
174	0x3db5c4a7	0.08875399
175	0x3d97949e	0.07401393
176	0xbcf55f82	-0.029952768
177	0x3dce2cfc	0.10067174
178	0xbd8f56aa	-0.06998952
179	0x3e148a19	0.14505805
180	0x3ceb663d	0.028735274
181	0xbdeda2e8	-0.116033375
182	0x3dfd952d	0.12381969
183	0x3e02601d	0.12731977
184	0x3dde8de0	0.10866904
185	0xbdfd6fe3	-0.12374856
186	0xbd3982fe	-0.04529094
187	0xbd8adc15	-0.067802586
188	0x3d591410	0.05299765
189	0xbd51cff0	-0.051223695
190	0xbd0f8849	-0.03504208
191	0x3dce4033	0.10070839
192	0x3d173b8f	0.036922034
193	0x3b260825	0.0025334444
194	0xbce570b2	-0.028007839
195	0x3ca27d32	0.019835088
196	0xbe6eb8a7	-0.23312627
197	0xbdb22a4c	-0.08699474
198	0xbe375947	-0.1790515
199	0x3e6fc3a4	0.23414475
200	0xbd3277f4	-0.043571427
201	0x3dda05d4	0.10645643
202	0xbde26d78	-0.11056036
203	0xbdf80018	-0.12109393
204	0xbdf39584	-0.11893752
205	0x3cf49640	0.029856801
206	0x3c96edee	0.018424
207	0x3dbc91c2	0.092074886
208	0x3d992f41	0.07479716
209	0xbe0ad695	-0.13558419
210	0xbcbbbffd	-0.022918696
211	0xbdca44e2	-0.098764196
212	0xbd94aba8	-0.07259303
213	0xbdad3290	-0.0845691
214	0x3da54aa6	0.08070879
215	0x3dafdf4d	0.08587513
216	0xbdaed10e	-0.08535968
217	0x3df4f98c	0.1196166
218	0x3b66fbea	0.0035245367
219	0x3e010aab	0.12601726
220	0xbdc0fee6	-0.09423618
221	0x3d689256	0.05678018
222	0x3def93ec	0.11698136
223	0x3df88bd4	0.12136045
224	0x3d8c391d	0.06846831
225	0x3d3d61a4	0.046235695
226	0xbd68d6e3	-0.056845557
227	0x3dcb9bad	0.09941802
228	0xbe056733	-0.13027649
229	0xbd5ea8f6	-0.054360352
230	0xbe256add	-0.16154046
231	0x3cbcdb15	0.023053685
232	0x3db53b21	0.088491686
233	0xbd0938d5	-0.033501465
234	0x3dfa9a58	0.1223647
235	0xbd3e475a	-0.046454765
236	0x3d9ac584	0.07557204
237	0x3e2c81c8	0.16846383
238	0x3daa7807	0.08323675
239	0xbdd8924f	-0.10574781
240	0xbcab4a5e	-0.020909484
241	0x3c9f6a3c	0.019459836
242	0xbe03a0a4	-0.12854248
243	0x3e13b402	0.14424136
244	0x3e106c3e	0.14103791
245	0x3ba8605e	0.005138441
246	0x3e0a50a0	0.13507318
247	0x3d9153b0	0.0709604
248	0xbdfbad72	-0.122889414
249	0x3d14b619	0.036306474
250	0x3d9c3e86	0.07629113
251	0x3d55be9b	0.05218373
252	0x3df13269	0.11777193
253	0x3e011b4b	0.12608068
254	0x3b83c96e	0.004021815
255	0xbb6c2e62	-0.0036038388

arith.constant8 f4 [32, 1, 1, 16]
0	0x3e8cd89e	0.27509016
1	0x3e20355c	0.15645355
2	0xbd52a67a	-0.051428296
3	0xbd8a27a0	-0.06745839
4	0xbd24f06a	-0.04026834
5	0x3b037c83	0.0020063228
6	0xba6e0942	-0.0009080359
7	0xbe899c22	-0.26876932
8	0xbd444689	-0.04791883
9	0xbe280345	-0.16407497
10	0x3b7f6c12	0.0038974327
11	0x3e183ecb	0.14867704
12	0xbea9be28	-0.3315289
13	0x3eba340c	0.36367834
14	0x3e9d8154	0.30762732
15	0xbe8b2fb1	-0.27184823
16	0x3e6a7178	0.22894847
17	0xbe7b6c99	-0.24553145
18	0x3ea836b8	0.32854247
19	0x399fc6e6	0.00030475034
20	0x3e81e9ea	0.25373775
21	0x3e4137fb	0.18869011
22	0xbeb636c7	-0.35588667
23	0xbd518b45	-0.05115821
24	0xbe49e712	-0.19717053
25	0xbe86331c	-0.26210868
26	0xbd99ed05	-0.07515911
27	0x3eac98c3	0.33710298
28	0x3e1e2bba	0.15446368
29	0xbd2b5354	-0.041827515
30	0x3d635ada	0.055506565
31	0x3e6566e7	0.22402535
32	0x3e17ac0f	0.14811729
33	0xbe3c3bc7	-0.18382178
34	0xbda1c191	-0.07898248
35	0x3e65dfbf	0.22448634
36	0x3eab6481	0.33475116
37	0xbea3ea53	-0.32014713
38	0x3eaca414	0.33718932
39	0x3e9ce899	0.30646208
40	0xbe63a0ff	-0.22229384
41	0xbdfd6db3	-0.12374439
42	0x3bd5523d	0.0065100477
43	0x3e2ac57a	0.16676894
44	0x3def3a9a	0.11681099
45	0xbddd0cf0	-0.10793483
46	0x3dedc62d	0.11610065
47	0xbe6b22a0	-0.22962427
48	0x3e928130	0.28614187
49	0xbe97e928	-0.29670072
50	0x3e5473ad	0.20747252
51	0x3e8e8fc0	0.27844048
52	0x3e34a4b2	0.17640951
53	0x3ea45efc	0.32103717
54	0x3e11988b	0.14218347
55	0xbd282c8a	-0.0410581
56	0xbe525248	-0.205392
57	0x3b4fe74b	0.0031723555
58	0x3e20ec10	0.1571505
59	0xbda26863	-0.079300664
60	0x3d52dc07	0.051479366
61	0x3d58228f	0.052767333
62	0x3d8c2ce2	0.06844498
63	0xbe4cc204	-0.19995886
64	0xbdd9af19	-0.106291
65	0x3dd3473b	0.103163205
66	0xbdc53518	-0.096292675
67	0xbea834fe	-0.3285293
68	0x3d682ef7	0.056685414
69	0xbec2977c	-0.38006198
70	0x3e1533b1	0.145705
71	0x3b820359	0.003967684
72	0x3e9711dc	0.29505813
73	0x3ea52425	0.3225414
74	0x3eacc4ac	0.337438
75	0x3e9ee3b2	0.31033093
76	0xbeb4664b	-0.35234293
77	0x3e07ac77	0.13249384
78	0x3e665d0f	0.22496437
79	0xbe2bb8e0	-0.16769743
80	0xbe0350ba	-0.12823763
81	0xbe05f37d	-0.13081165
82	0x3ea862b4	0.32887805
83	0x3e644dde	0.22295329
84	0x3e0d3da3	0.13793044
85	0xbeaf71c6	-0.3426649
86	0x3bae3948	0.005316887
87	0xbd0cd6af	-0.034384426
88	0x3e84434a	0.25832587
89	0x3e6c857b	0.23097794
90	0x3e4b64ca	0.19862667
91	0xbcb47fac	-0.022033535
92	0xbe380ff9	-0.17974843
93	0x3eb1ee3b	0.34752068
94	0xbe77e3da	-0.24208012
95	0x3e3e9c9b	0.18614428
96	0x3b36fbc9	0.0027921072
97	0x3db45017	0.088043384
98	0xbe06b8fc	-0.13156503
99	0x3e249908	0.16074002
100	0x3e01395c	0.12619537
101	0xbd46ce2c	-0.048536465
102	0x3c12721f	0.008938341
103	0xbe84059f	-0.2578554
104	0xbe665132	-0.22491911
105	0x3daa7147	0.08322387
106	0xbe814afb	-0.25252518
107	0xbe3e7ef2	-0.18603113
108	0x3e84b12d	0.25916424
109	0x3efa2a29	0.4886029
110	0x3e3b11d0	0.18268514
111	0x38b386d4	8.560499e-05
112	0xbe9b2d04	-0.30307782
113	0x3eadea6e	0.33967918
114	0x3e105716	0.1409572
115	0x3e8fe5e9	0.28105095
116	0xbe1249ec	-0.14286011
117	0xbde5fea5	-0.1123021
118	0xbe7d4574	-0.24733526
119	0xbe6710bd	-0.22564979
120	0xbe25aa54	-0.16178256
121	0x3eaecb9d	0.3413972
122	0xbd2fcebf	-0.042921778
123	0xbde67a07	-0.112537436
124	0xbe741ba8	-0.23838675
125	0x3eb9c952	0.36286408
126	0x3e2cb268	0.16864932
127	0xbe8a0c91	-0.26962712
128	0x3ec1959b	0.37809452
129	0x3bef479f	0.007302239
130	0x3dd0ab91	0.10188974
131	0xbe65d8ac	-0.22445935
132	0xbdebb9d2	-0.11510052
133	0x3ea31e90	0.31859255
134	0x3de990ed	0.114045955
135	0xbdcbcd1f	-0.09951233
136	0xbe7e63c3	-0.24842744
137	0xbe0cf88c	-0.13766688
138	0xbe7da10a	-0.24768463
139	0x3eb1e4dd	0.3474492
140	0xbe7f124d	-0.24909325
141	0xbd25f687	-0.04051831
142	0x3e8fc3c9	0.2807906
143	0x3d8878e0	0.0666368
144	0x3a7203eb	0.0009232151
145	0xbdb3d0bf	-0.087800495
146	0x3ea04fe1	0.31310943
147	0xbd9bb2f8	-0.07602495
148	0xbe0eeee4	-0.13958317
149	0xbeca228e	-0.39479488
150	0xbd3149a3	-0.043283116
151	0x3e676c94	0.22600013
152	0xbe7fdbe2	-0.24986222
153	0xbd79b49b	-0.060963254
154	0x3e669171	0.22516419
155	0xbe8f32e2	-0.27968508
156	0xbab4e065	-0.0013799785
157	0x3bd28e91	0.0064256866
158	0x3e7127bd	0.23550315
159	0x3e9d0a53	0.3067194
160	0xbe46ad61	-0.19402076
161	0xbd57c8f6	-0.052681886
162	0xbb74c32a	-0.0037347772
163	0x3c76c686	0.01506198
164	0xbe969b85	-0.29415527
165	0xbd7e4447	-0.062076833
166	0xbe7ce63f	-0.24697207
167	0xbe830ed0	-0.2559724
168	0xbe4a0dc8	-0.1973182
169	0x3d88264b	0.06647929
170	0x3db561c0	0.08856535
171	0x3d44ca45	0.04804446
172	0xbe282fcc	-0.16424483
173	0x3ec058df	0.37567803
174	0xbe5491bf	-0.20758723
175	0x3e30380f	0.17208885
176	0xbea72f2e	-0.32653183
177	0x3e44dd8d	0.1922514
178	0xbda3207e	-0.07965182
179	0x3e69f0bd	0.2284574
180	0xbe34040f	-0.17579673
181	0xbe12e345	-0.14344509
182	0xbe148bb9	-0.14506425
183	0xb9bb20a4	-0.0003569174
184	0xbe31ab67	-0.17350541
185	0x3e5734a1	0.2101617
186	0x3e841351	0.25795987
187	0xbd85f4ac	-0.06540808
188	0x3ec8f40f	0.39248702
189	0xbe9c649b	-0.30545506
190	0xbcdc633c	-0.026902787
191	0x3eb73aed	0.35787144
192	0xbe063074	-0.13104421
193	0xbe592950	-0.21207166
194	0x3e356a1b	0.17716257
195	0x3eb23f96	0.34814137
196	0xbe5fd08d	-0.218569
197	0x3d6534a1	0.055958394
198	0xbe691a45	-0.22763927
199	0x3c8c6bcd	0.017141247
200	0xbe321c09	-0.17393507
201	0xbe67b5d4	-0.22627956
202	0xbca396f8	-0.019969448
203	0x3e7d737c	0.24751085
204	0x3e298b18	0.16556966
205	0xbe297f42	-0.16552451
206	0x3e7891b1	0.24274327
207	0xbd80b8d9	-0.06285257
208	0x3d603a99	0.054743383
209	0x3da7698e	0.0817443
210	0x3d723fa9	0.059142742
211	0xbed839dc	-0.42231643
212	0xbe5db956	-0.21652731
213	0xbe5c1e7f	-0.21496008
214	0x3e5c9ac3	0.21543412
215	0x3e7a6c11	0.24455287
216	0x3e82c252	0.2553888
217	0xbe26430d	-0.16236515
218	0x3be79ff1	0.007068627
219	0x3e544faa	0.20733514
220	0xbecd8fb8	-0.4014871
221	0x3e4f982a	0.2027289
222	0xbe994dde	-0.2994222
223	0x3e73b90c	0.23801059
224	0x3e9b4321	0.30324653
225	0xbe869243	-0.26283464
226	0x3e572d03	0.21013264
227	0xbdee83f7	-0.11646264
228	0x3eb1928a	0.34682113
229	0xbc0e60f1	-0.008690105
230	0x3c51db1b	0.0128085865
231	0x3e383e2e	0.1799247
232	0x3ce59f89	0.028030174
233	0x3ea99bff	0.33126828
234	0xbe6fb443	-0.23408608
235	0x3c1e0e2b	0.009646933
236	0xbe9fd243	-0.31215104
237	0xbdf74900	-0.120744705
238	0xbe45c662	-0.19313958
239	0x3e9b5306	0.3033678
240	0xbe9d0db1	-0.30674508
241	0x3c80ea61	0.01573676
242	0x3e40a001	0.18811037
243	0x3e90863d	0.28227416
244	0xbe98eb13	-0.29866847
245	0xbdf8f735	-0.12156526
246	0xbecadb64	-0.39620507
247	0xbe6c0311	-0.23048045
248	0xbcbcaf1a	-0.023032714
249	0xbdd38c2d	-0.10329471
250	0x3e493173	0.1964777
251	0xbe34f4ff	-0.17671584
252	0xbd99d3df	-0.07511114
253	0xbe4640cd	-0.19360657
254	0xbc8e165c	-0.017344646
255	0x3e3313e7	0.17488061

arith.constant9 f4 [32]
0	0x00000000	0.0
1	0x00000000	0.0
2	0x00000000	0.0
3	0x00000000	0.0
4	0x00000000	0.0
5	0x00000000	0.0
6	0x00000000	0.0
7	0x00000000	0.0
8	0x00000000	0.0
9	0x00000000	0.0
10	0x00000000	0.0
11	0x00000000	0.0
12	0x00000000	0.0
13	0x00000000	0.0
14	0x00000000	0.0
15	0x00000000	0.0
16	0x00000000	0.0
17	0x00000000	0.0
18	0x00000000	0.0
19	0x00000000	0.0
20	0x00000000	0.0
21	0x00000000	0.0
22	0x00000000	0.0
23	0x00000000	0.0
24	0x00000000	0.0
25	0x00000000	0.0
26	0x00000000	0.0
27	0x00000000	0.0
28	0x00000000	0.0
29	0x00000000	0.0
30	0x00000000	0.0
31	0x00000000	0.0

arith.constant10 f4 [1, 1, 9, 16]
0	0x3e14bfd0	0.14526296
1	0xbd046a5d	-0.032328
2	0xbd367925	-0.044549126
3	0x3d13222b	0.035921257
4	0xbd257711	-0.040396754
5	0x3df802b8	0.121098936
6	0x3da5374e	0.08067189
7	0x3de0c848	0.109757006
8	0xbdaccc2c	-0.0843738
9	0x3e344044	0.1760264
10	0xbe1e6b46	-0.15470609
11	0x3e3842f0	0.17994285
12	0x3e2a2f23	0.16619544
13	0xbe997278	-0.29970145
14	0x3d8f9d38	0.07012409
15	0xbdfa3037	-0.122162275
16	0xbdae769a	-0.08518715
17	0x3e1c837c	0.15284532
18	0xbe14b868	-0.1452347
19	0x3e39391a	0.18088189
20	0xbdc87341	-0.09787608
21	0x3e3dd670	0.18538833
22	0xbd9977fd	-0.07493589
23	0x3c847bf5	0.016172389
24	0x3de4580c	0.11149606
25	0xbc8ff42a	-0.017572481
26	0xbc7c7728	-0.015409268
27	0x3d3d020f	0.04614454
28	0xbe17700f	-0.1478884
29	0xbdff85de	-0.12476705
30	0xbd9a19d4	-0.075244576
31	0xbddd5fe8	-0.10809308
32	0x3e50d9e8	0.20395625
33	0xbdcced56	-0.10006206
34	0xbe4c72f1	-0.19965722
35	0x3e35d161	0.17755653
36	0x3dbc46fe	0.09193228
37	0x3e435637	0.19075857
38	0xbe0de18e	-0.13855574
39	0x3e2d7ed9	0.1694292
40	0x3df90496	0.12159078
41	0xbddc87ba	-0.10768075
42	0x3dda1d74	0.10650149
43	0x3e2fcce0	0.17167997
44	0x3dd10ef8	0.10207933
45	0xbd209cf4	-0.039212182
46	0x3c2daa8d	0.0105997445
47	0x3e1e00c2	0.15429977
48	0x3e0520ba	0.13000765
49	0xbe3a90e9	-0.18219341
50	0xbd2c9433	-0.04213352
51	0x3c090e2f	0.008365198
52	0xbdf058f4	-0.117357165
53	0x3d26eb0b	0.0407515
54	0x3da502a4	0.08057144
55	0x3d4dba33	0.0502264
56	0xbe12d3ff	-0.14338683
57	0xbe03066c	-0.12795419
58	0x3c072dd4	0.008250672
59	0xbdba6a8b	-0.09102353
60	0x3db00f0e	0.085966215
61	0xbe475bb8	-0.19468582
62	0xbc817461	-0.015802564
63	0xbcf8f578	-0.030390486
64	0x3d97cbd1	0.07411922
65	0xbdd11390	-0.102088094
66	0xbd3a6240	-0.045503855
67	0x3e00e774	0.12588292
68	0x3dc17315	0.09445778
69	0x3c251142	0.010074915
70	0x3d3984aa	0.045292534
71	0x3e11991b	0.14218561
72	0x3bbb97ac	0.005724868
73	0x3c5ed30c	0.013600122
74	0xbe2ede39	-0.17076959
75	0x3e0a8cad	0.13530226
76	0x3e2b2807	0.16714488
77	0xbe7fcbc1	-0.2498007
78	0xbe58c7a7	-0.21169911
79	0x3e057cdf	0.13035916
80	0x3d57d5ad	0.05269401
81	0x3d95dcae	0.07317482
82	0x3dbfb51b	0.09360715
83	0xbd15e122	-0.036591657
84	0xbdfc3da5	-0.12316445
85	0x3db6a75f	0.08918642
86	0x3dea9272	0.114537135
87	0xbe1ee701	-0.15517808
88	0x3d8bb5be	0.06821774
89	0x3c19744a	0.009366104
90	0x3dfef1f0	0.1244849
91	0x3cff5c63	0.031171983
92	0xbe2e1834	-0.1700142
93	0xbe51f798	-0.20504606
94	0xbe4736fa	-0.19454566
95	0xbddc0caa	-0.10744603
96	0xbdedc8e1	-0.1161058
97	0xbce479cf	-0.027890114
98	0x3d6e8328	0.05823055
99	0xbd81bb0f	-0.06334507
100	0x3e334887	0.17508136
101	0x3d94ff9e	0.072753176
102	0x3d2bc4de	0.041935794
103	0x3e12975e	0.14315554
104	0xbe14b97b	-0.1452388
105	0x3e2e78c0	0.1703825
106	0xbd968bc8	-0.0735088
107	0x3bd1e095	0.006404946
108	0xbdd8a951	-0.105791695
109	0xbdbff807	-0.09373479
110	0xbd8ee743	-0.069777034
111	0x3e016d5c	0.12639374
112	0xbe20408a	-0.1564962
113	0x3e614015	0.21997102
114	0x3d28d2c9	0.041216645
115	0x3e1c34aa	0.15254465
116	0x3e208e4b	0.1567928
117	0x3e0ef35e	0.13960025
118	0xbe32bcac	-0.17454785
119	0x3da6ef9a	0.08151169
120	0x3d938af2	0.07204236
121	0x3c0b70d5	0.008510788
122	0xbd0965ad	-0.03354423
123	0xbc5d16e4	-0.013494227
124	0x3e67a3c2	0.22621062
125	0x3da1f8e8	0.07908803
126	0x3d2b020f	0.04175001
127	0x3c98c4bf	0.018648503
128	0xbe1ae04e	-0.15124628
129	0x3e490115	0.19629319
130	0xbd192c72	-0.037395902
131	0x3e630be4	0.22172505
132	0x3d0fe012	0.0351258
133	0xbb440964	-0.0029912824
134	0x3e35208f	0.17688201
135	0x3ddcee48	0.10787636
136	0x3d12b1ae	0.03581398
137	0xbda4c7ab	-0.08045896
138	0x3cc92552	0.024553929
139	0x3e58ba4b	0.21164815
140	0x3dd51658	0.10404652
141	0xbe8133f8	-0.25234962
142	0x3cc3843c	0.023866765
143	0x3e34c29c	0.17652363

arith.constant11 f4 [16, 1, 9, 1]
0	0x3d181468	0.037128836
1	0xbe369aee	-0.17832538
2	0xbdbb924e	-0.09158765
3	0xbe61ff62	-0.22070077
4	0x3ccc54c5	0.024942765
5	0x3d3d3f53	0.04620297
6	0xbc9aee2d	-0.0189124
7	0xbdb38a0a	-0.08766563
8	0x3da6a8b5	0.08137647
9	0xbd0fa489	-0.035069022
10	0xbe1f8b24	-0.15580422
11	0x3db95fdf	0.09051489
12	0xbe4744b0	-0.19459796
13	0xbe0560de	-0.13025233
14	0xbe2e5c9b	-0.17027514
15	0x3e030b34	0.12797242
16	0x3e3de15a	0.18542996
17	0x3d34b231	0.04411525
18	0xbdefddd7	-0.117122345
19	0x3d9f5e3b	0.07781645
20	0x3bca2b15	0.0061696866
21	0x3d59a841	0.053138975
22	0xbe6182d4	-0.22022563
23	0xbe80c615	-0.25151125
24	0x3d399974	0.04531236
25	0x3bc93c25	0.006141203
26	0xbcb36cec	-0.021902524
27	0xbc7fbfd1	-0.015609697
28	0xbd8c1301	-0.06839562
29	0x3e23c6a7	0.15993749
30	0xbd84516d	-0.06460843
31	0x3e243801	0.16036989
32	0x3ddf628e	0.1090747
33	0x3e4b76b9	0.19869508
34	0x3e8678b3	0.2626396
35	0xbdeb94c5	-0.11502985
36	0xbc265751	-0.010152654
37	0xbdb03195	-0.08603207
38	0x3ddb7b67	0.107168965
39	0x3e132f63	0.14373545
40	0x3decaaf9	0.11556048
41	0xbdf709b1	-0.12062395
42	0x3e2c6bdc	0.1683802
43	0x3d485d36	0.048917018
44	0xbe129f98	-0.14318693
45	0x3e80d2a1	0.25160697
46	0x3d02bd44	0.03191878
47	0x3d8bbca5	0.068230905
48	0x3e6f523a	0.2337121
49	0xbdec60fd	-0.115419365
50	0xbdced5d3	-0.100993775
51	0x3e616d0c	0.22014254
52	0x3e27603d	0.16345306
53	0x3e1c55b8	0.15267074
54	0x3ddb9131	0.107210524
55	0xbd2eee68	-0.04270783
56	0x3d81565b	0.06315299
57	0xbe0be048	-0.13659775
58	0xbda4cd37	-0.08046954
59	0x3da100a8	0.07861453
60	0xbd93f73a	-0.07224889
61	0xbd9ecc24	-0.077537805
62	0x3e0d073e	0.13772294
63	0x3e4e2315	0.2013057
64	0x3e078ff5	0.13238509
65	0x3c2dac23	0.010600123
66	0x3e5195be	0.20467278
67	0x3e197b35	0.14988406
68	0xbd2a8723	-0.041632783
69	0x3cb10dc6	0.021613013
70	0x3e09baff	0.1345024
71	0x3d9892ce	0.07449876
72	0xbe0fc908	-0.14041531
73	0xbdf2b870	-0.11851585
74	0x3e0dceaa	0.13848367
75	0xbcc02e9b	-0.023459723
76	0xbdac3a6c	-0.084095806
77	0x3d131f7d	0.0359187
78	0xbd46defe	-0.048552506
79	0xbcfccd07	-0.030859483
80	0x3d2cb1aa	0.04216162
81	0x3dd39cf5	0.103326716
82	0x3e04bdb3	0.1296299
83	0x3d3b5fc7	0.045745637
84	0xbd43e698	-0.047827333
85	0x3b5afdf5	0.003341553
86	0xbe1e582b	-0.15463321
87	0xbdd0e14d	-0.10199223
88	0xbdc91f27	-0.09820395
89	0x3e07b5ce	0.13252947
90	0x3d323b4b	0.043513577
91	0xbdf660fc	-0.12030217
92	0x3da6cb20	0.08144212
93	0x3cb926f7	0.022601588
94	0x3ddb5b96	0.10710828
95	0x3be1795d	0.0068809227
96	0x3e3f17bb	0.18661396
97	0xbd426506	-0.047459625
98	0xbd8472a7	-0.06467181
99	0xbdf4bc0e	-0.11949931
100	0xbd4d6717	-0.050147142
101	0xbc9debbe	-0.01927745
102	0xbd627c59	-0.05529437
103	0xbe1d3707	-0.15353023
104	0xbda5f2eb	-0.081029736
105	0x3db103eb	0.086433254
106	0xbe6716a6	-0.22567233
107	0xbdbcab41	-0.092123516
108	0xbdc40dbd	-0.09572933
109	0xbcb291d6	-0.021798056
110	0xbd9cee29	-0.07662613
111	0x3d669bbf	0.056300875
112	0x3c0c1b4e	0.008551432
113	0x3e15258e	0.14565107
114	0x3d8393e9	0.06424696
115	0x3d8ee903	0.06978037
116	0x3c58818e	0.013214482
117	0xbd7b489a	-0.061348535
118	0xbc814c35	-0.015783409
119	0xbe5e593b	-0.21713726
120	0x3c7fae23	0.015605482
121	0xbe30984e	-0.172456
122	0xbe34e55d	-0.1766562
123	0xbe181ce9	-0.14854778
124	0xbd84986c	-0.06474385
125	0xbdda5c34	-0.106621176
126	0xbe608ec4	-0.21929461
127	0xbdf64cfc	-0.12026402
128	0xbd93323c	-0.07187316
129	0x3d1bfa5e	0.038080566
130	0xbe24e1db	-0.16101782
131	0xbb2231e5	-0.0024748978
132	0x3e415a53	0.18882112
133	0xbde4e9e4	-0.111774236
134	0xbe24ecb8	-0.16105926
135	0xbe236d86	-0.15959749
136	0xbdae46de	-0.085096106
137	0xbe0fd9ef	-0.14047979
138	0xbdab420c	-0.08362207
139	0xbc7eb33e	-0.015545664
140	0x3d233369	0.03984395
141	0xbde897d1	-0.11357082
142	0x3ca9c6a0	0.020724595
143	0xbd917e9f	-0.07104229

arith.constant12 f4 [16]
0	0x00000000	0.0
1	0x00000000	0.0
2	0x00000000	0.0
3	0x00000000	0.0
4	0x00000000	0.0
5	0x00000000	0.0
6	0x00000000	0.0
7	0x00000000	0.0
8	0x00000000	0.0
9	0x00000000	0.0
10	0x00000000	0.0
11	0x00000000	0.0
12	0x00000000	0.0
13	0x00000000	0.0
14	0x00000000	0.0
15	0x00000000	0.0

arith.constant13 f4 [1, 64]
0	0xbe57b834	-0.21066362
1	0x3e5613d4	0.20906001
2	0xbe719a64	-0.23594052
3	0xbe3f02f5	-0.18653472
4	0x3d2ad85e	0.04171025
5	0xbecef806	-0.40423602
6	0xbe5a3cef	-0.21312307
7	0xbeb40c9a	-0.35165864
8	0xbe6e8a1c	-0.23294872
9	0x3e853d28	0.2602322
10	0x3da245ee	0.07923494
11	0x3e89f673	0.26945838
12	0xbead3b9a	-0.33834535
13	0xbe8ecb08	-0.27889276
14	0x3e84be51	0.2592645
15	0xbec2846b	-0.37991652
16	0x3ea9734e	0.33095783
17	0xbd9ff21e	-0.07809852
18	0xbe818c40	-0.25302315
19	0x3deab15c	0.1145961
20	0x3e50d321	0.2039304
21	0x3e2ed134	0.17071992
22	0xbe554268	-0.20826113
23	0xbe32e1de	-0.17468974
24	0xbead3c7c	-0.33835208
25	0xbd3eea5d	-0.046610225
26	0xbea4e564	-0.3220626
27	0xbe64a84a	-0.22329822
28	0xbec3614c	-0.3816017
29	0x3e8ecf0f	0.27892348
30	0xbeacf027	-0.33776972
31	0x3d609f95	0.05483969
32	0x3d887134	0.06662217
33	0xbe2cbe9a	-0.16869584
34	0x3e86af7c	0.2630576
35	0xbe1be47a	-0.15223876
36	0x3e3f44a8	0.18678534
37	0xbe3b0fec	-0.18267792
38	0xbea8a953	-0.32941684
39	0xbdbac938	-0.09120411
40	0x3e3ea26c	0.18616647
41	0xbdcc4bdd	-0.09975407
42	0x3ea7bfaa	0.32763416
43	0xbe000153	-0.12500505
44	0xbd761f7b	-0.060088616
45	0x3eab0488	0.33401895
46	0xbdc4c190	-0.096072316
47	0xbe5bc97f	-0.21463583
48	0x3e8d014e	0.27540058
49	0xbde90cd4	-0.113794
50	0x3ea666a2	0.32500178
51	0x3e8d64a6	0.2761585
52	0x3dafc77f	0.08582973
53	0x3eaedabc	0.34151256
54	0xbe81db9a	-0.25362855
55	0xbe1af427	-0.15132199
56	0xbe21ebfb	-0.15812676
57	0x3e9e0b3c	0.30867946
58	0x3e8ca090	0.2746625
59	0xbe2fcfd2	-0.17169121
60	0x3d597e40	0.053098917
61	0x3d04f578	0.03246066
62	0xbe8c5257	-0.2740657
63	0x3defcc8d	0.11708937

functional_1/batch_normalization_1_2/batchnorm/mul f4 [32]
0	0x40e54d08	7.165653
1	0x409bc119	4.8673215
2	0x408c46ae	4.383628
3	0x407485e9	3.8206732
4	0x40fa5213	7.822519
5	0x40d9c023	6.804704
6	0x4100c8ec	8.049053
7	0x40f736b9	7.72543
8	0x40a44350	5.133217
9	0x40e11441	7.0337224
10	0x40ddf39d	6.935988
11	0x403b0101	2.9219363
12	0x407511db	3.8292148
13	0x40e0e9f8	7.0285606
14	0x40991156	4.783366
15	0x40ab727b	5.3577247
16	0x40b0c552	5.524087
17	0x4033bec1	2.8085177
18	0x40de86ef	6.9539714
19	0x40bb859b	5.8600593
20	0x40abb057	5.365276
21	0x40cd4c98	6.4156
22	0x4101d774	8.115101
23	0x406b45ef	3.6761434
24	0x4094cfcd	4.6503663
25	0x40e2c813	7.086923
26	0x4071a87e	3.775909
27	0x40953d5b	4.6637397
28	0x4082d238	4.0881615
29	0x40e5d54a	7.1822863
30	0x402d2a6d	2.7057145
31	0x40dd740a	6.920415

functional_1/batch_normalization_1_2/batchnorm/sub f4 [32]
0	0xbeabba2b	-0.33540472
1	0xbdab3f98	-0.08361739
2	0xbdf6d68c	-0.1205264
3	0xbe02cfb6	-0.12774548
4	0xbeb95591	-0.36198094
5	0xbf074a6b	-0.5284793
6	0xbe83a9bd	-0.25715438
7	0xbf12b56a	-0.57308066
8	0xbdb43fc4	-0.08801225
9	0xbe8022f9	-0.25026682
10	0xbee7c31e	-0.4526605
11	0xbdd1ea1e	-0.102497324
12	0xbe4081f6	-0.18799576
13	0xbe5f7811	-0.21823145
14	0xbe546097	-0.20739971
15	0xbd7a1422	-0.061054356
16	0xbe812d9a	-0.25230104
17	0xbe127e3f	-0.14305972
18	0xbe5c0aa8	-0.2148844
19	0xbde79441	-0.11307574
20	0xbec2b025	-0.38025013
21	0xbe711f8a	-0.23547187
22	0xbe44c893	-0.19217138
23	0xbe17553d	-0.1477861
24	0xbe9623e8	-0.2932427
25	0xbf033517	-0.51252884
26	0xbdff8511	-0.12476552
27	0xbdb059be	-0.08610867
28	0xbe16056c	-0.14650506
29	0xbee366df	-0.44414422
30	0xbe544321	-0.20728733
31	0xbe8444a9	-0.25833634

functional_1/batch_normalization_1/batchnorm/mul f4 [16]
0	0x40e649b0	7.196495
1	0x40e4e2c4	7.1526814
2	0x40e83185	7.256045
3	0x40e5e9a7	7.184772
4	0x40de17b8	6.9403954
5	0x40e1aabc	7.0520916
6	0x40ec74ca	7.3892565
7	0x40e2c3c9	7.0863996
8	0x40d8b5b0	6.7721786
9	0x40dfe615	6.996836
10	0x40df37b6	6.9755507
11	0x40e7feb5	7.249842
12	0x40e859f5	7.260981
13	0x40f929bc	7.7863445
14	0x40e4bc86	7.148013
15	0x40d9fb35	6.811915

functional_1/batch_normalization_1/batchnorm/sub f4 [16]
0	0xbe39a6d8	-0.18130052
1	0xbee92230	-0.45533895
2	0xbdd07180	-0.101778984
3	0xbe13529e	-0.14386985
4	0xbc828ea8	-0.015937164
5	0xbd53e7c9	-0.05173472
6	0xbdccaa2b	-0.099933945
7	0xbc9023c6	-0.017595183
8	0xbde4732c	-0.1115478
9	0x3c033e5b	0.008010472
10	0x3b982db8	0.004644122
11	0xbd90a4d1	-0.07062686
12	0xbe59a565	-0.212545
13	0xbd1c0a29	-0.038095627
14	0xbcf221b4	-0.029557087
15	0xbd52d3be	-0.051471464

functional_1/batch_normalization_2_1/batchnorm/mul f4 [64]
0	0x40c40719	6.1258664
1	0x40e296f6	7.080928
2	0x40ebb342	7.365632
3	0x40e67701	7.202027
4	0x40be1b8e	5.9408636
5	0x40d21e8b	6.5662284
6	0x40b3d338	5.6195335
7	0x40da5c8c	6.823797
8	0x40b07ccf	5.5152354
9	0x40df83d7	6.9848437
10	0x407ae330	3.9201164
11	0x40bec298	5.961254
12	0x40e70a57	7.220012
13	0x40d5eafa	6.6849337
14	0x40bf1a9c	5.971998
15	0x40d0bc13	6.5229583
16	0x40abfc65	5.37456
17	0x40c2b40a	6.0844774
18	0x40d39c7a	6.612851
19	0x4090bc02	4.52295
20	0x40dbe083	6.871156
21	0x40b502d1	5.656594
22	0x40dfb5b1	6.990929
23	0x40ecceb9	7.4002347
24	0x40d5f2e3	6.6858993
25	0x40ca1e00	6.316162
26	0x40b29234	5.580347
27	0x40d6178a	6.6903734
28	0x40e901b6	7.281459
29	0x40d708f1	6.7198415
30	0x40e2f256	7.092082
31	0x40c16f4c	6.044836
32	0x40d5b7cd	6.6786866
33	0x40e2e975	7.090998
34	0x40d4d16e	6.650565
35	0x40bbb047	5.865268
36	0x40e9e6cb	7.309423
37	0x40ee1c74	7.4409733
38	0x40cfc660	6.4929657
39	0x40d2eb63	6.5912337
40	0x40c314c4	6.096285
41	0x40a54179	5.1642423
42	0x40e48e8a	7.1424
43	0x40de8505	6.9537377
44	0x40ee91b7	7.4552875
45	0x40ced214	6.4631443
46	0x40cb3deb	6.3513083
47	0x40ca7746	6.3270597
48	0x405e5c8d	3.4743989
49	0x40fe45bc	7.9460125
50	0x409b19fd	4.8469224
51	0x40c9711c	6.2950573
52	0x40c3af82	6.1151743
53	0x40ade1d5	5.4338174
54	0x40b56d70	5.669609
55	0x40c99783	6.299745
56	0x40e51083	7.1582656
57	0x40c0a4b5	6.020106
58	0x40bb6fe4	5.8574085
59	0x40efb2a9	7.490559
60	0x40a9829f	5.297195
61	0x40b1e8b5	5.5596566
62	0x40d63f84	6.6952534
63	0x40b1556e	5.5416784

functional_1/batch_normalization_2_1/batchnorm/sub f4 [64]
0	0xbe85493a	-0.2603243
1	0xbe776b1a	-0.2416195
2	0xbefbede4	-0.49204934
3	0xbec27267	-0.37977907
4	0xbe8af698	-0.2714126
5	0xbeb37dea	-0.35057002
6	0xbe9dbff7	-0.3081052
7	0xbefd9173	-0.4952503
8	0xbe703e2e	-0.2346122
9	0xbe70172d	-0.23446341
10	0xbec8c499	-0.39212492
11	0xbe91e8d7	-0.28497955
12	0xbe91ff46	-0.2851507
13	0xbe9d99e2	-0.30781466
14	0xbe914170	-0.28370237
15	0xbedaa4de	-0.4270391
16	0xbe9c9f9b	-0.3059052
17	0xbd8ff636	-0.07029383
18	0xbed67d64	-0.4189254
19	0xbea9633b	-0.3308352
20	0xbe7f7f9c	-0.24951023
21	0xbe98db3e	-0.2985477
22	0xbf0f424b	-0.5596053
23	0xbee56ca7	-0.44809458
24	0xbeca3ae9	-0.3949807
25	0xbe8b8c14	-0.2725531
26	0xbe815234	-0.25258029
27	0xbee818a0	-0.45331287
28	0xbefadfe1	-0.4899893
29	0xbe6c4a66	-0.23075256
30	0xbd58c9d4	-0.052926853
31	0xbe90db67	-0.2829239
32	0xbe7a9260	-0.244699
33	0xbea1bc69	-0.31589058
34	0xbe897635	-0.26847997
35	0xbd07d970	-0.03316635
36	0xbe74bc98	-0.23900068
37	0xbf08ca05	-0.5343326
38	0xbee6f166	-0.45106047
39	0x3b05d260	0.0020419583
40	0xbea41012	-0.3204351
41	0xbdf60d28	-0.12014228
42	0xbe70e9f4	-0.23526746
43	0xbde5141d	-0.11185477
44	0xbeaefd05	-0.34177414
45	0xbe8291d4	-0.25501883
46	0xbe597352	-0.21235397
47	0xbf150be0	-0.58221245
48	0xbeae82a0	-0.34084034
49	0xbf2493db	-0.6428811
50	0xbea4f31c	-0.32216728
51	0xbe708644	-0.23488718
52	0xbe9c3e60	-0.30516338
53	0xbea3629f	-0.3191118
54	0xbeae92b4	-0.340963
55	0xbe69e302	-0.22840503
56	0xbef917cc	-0.48650968
57	0xbe9d8748	-0.30767274
58	0xbe94a694	-0.2903334
59	0xbeb11233	-0.34584197
60	0xbe502068	-0.20324862
61	0xbe8c3838	-0.27386642
62	0xbc542610	-0.012948528
63	0xbe837db2	-0.25681835
