app/src/main/assets/aegis_oww_int8.tflite (tflite, 18832 bytes, 12 tensors)

tfl.pseudo_qconst1 i1 [1, 64] scale=0.0031829607 zero_point=0
0	0xbe	-0.21007541
1	0x42	0.21007541
2	0xb6	-0.2355391
3	0xc5	-0.18779469
4	0x0d	0.04137849
5	0x81	-0.40423602
6	0xbd	-0.21325837
7	0x92	-0.35012567
8	0xb7	-0.23235613
9	0x52	0.26100278
10	0x19	0.07957402
11	0x55	0.27055165
12	0x96	-0.33739382
13	0xa8	-0.28010052
14	0x51	0.2578198
15	0x89	-0.37877232
16	0x68	0.33102793
17	0xe7	-0.07957402
18	0xb1	-0.2514539
19	0x24	0.114586584
20	0x40	0.20370948
21	0x36	0.17187987
22	0xbf	-0.20689245
23	0xc9	-0.17506284
24	0x96	-0.33739382
25	0xf1	-0.04774441
26	0x9b	-0.32147902
27	0xba	-0.22280724
28	0x88	-0.38195527
29	0x58	0.28010052
30	0x96	-0.33739382
31	0x11	0.054110333
32	0x15	0.066842176
33	0xcb	-0.16869691
34	0x53	0.26418573
35	0xd0	-0.15278211
36	0x3b	0.18779469
37	0xc7	-0.18142876
38	0x99	-0.32784495
39	0xe3	-0.09230586
40	0x3a	0.18461172
41	0xe1	-0.09867178
42	0x67	0.32784495
43	0xd9	-0.124135464
44	0xed	-0.06047625
45	0x69	0.33421087
46	0xe2	-0.09548882
47	0xbd	-0.21325837
48	0x57	0.27691758
49	0xdc	-0.114586584
50	0x66	0.324662
51	0x57	0.27691758
52	0x1b	0.08593994
53	0x6b	0.3405768
54	0xb0	-0.25463685
55	0xd0	-0.15278211
56	0xce	-0.15914804
57	0x61	0.30874717
58	0x56	0.27373463
59	0xca	-0.17187987
60	0x11	0.054110333
61	0x0a	0.031829607
62	0xaa	-0.27373463
63	0x25	0.11776955

tfl.pseudo_qconst2 i1 [64] scale=0.0025291098 zero_point=126
0	0x17	-0.26049832
1	0x1e	-0.24279454
2	0xbb	-0.49317643
3	0xe8	-0.3793665
4	0x13	-0.27061474
5	0xf3	-0.35154626
6	0x04	-0.3085514
7	0xba	-0.49570552
8	0x21	-0.23520721
9	0x21	-0.23520721
10	0xe3	-0.39201203
11	0x0d	-0.2857894
12	0x0d	-0.2857894
13	0x04	-0.3085514
14	0x0e	-0.2832603
15	0xd5	-0.42741957
16	0x05	-0.3060223
17	0x62	-0.07081507
18	0xd8	-0.41983223
19	0xfb	-0.3313134
20	0x1b	-0.2503819
21	0x08	-0.29843497
22	0xa1	-0.55893326
23	0xcd	-0.44765243
24	0xe2	-0.39454114
25	0x12	-0.27314386
26	0x1a	-0.25291097
27	0xcb	-0.45271066
28	0xbc	-0.49064732
29	0x23	-0.230149
30	0x69	-0.053111307
31	0x0e	-0.2832603
32	0x1d	-0.24532366
33	0x01	-0.3161387
34	0x14	-0.26808563
35	0x71	-0.03287843
36	0x20	-0.23773633
37	0xab	-0.5336422
38	0xcc	-0.45018154
39	0x7f	0.0025291098
40	0xff	-0.32119694
41	0x4e	-0.12139727
42	0x21	-0.23520721
43	0x52	-0.11128083
44	0xf7	-0.34142983
45	0x19	-0.2554401
46	0x2a	-0.21244523
47	0x98	-0.58169526
48	0xf7	-0.34142983
49	0x80	-0.6423939
50	0xff	-0.32119694
51	0x21	-0.23520721
52	0x05	-0.3060223
53	0x00	-0.31866783
54	0xf7	-0.34142983
55	0x24	-0.22761989
56	0xbe	-0.4855891
57	0x04	-0.3085514
58	0x0b	-0.29084763
59	0xf5	-0.34648806
60	0x2e	-0.20232879
61	0x12	-0.27314386
62	0x79	-0.012645549
63	0x18	-0.2579692

tfl.pseudo_qconst3 i1 [64] scale=0.031160833 zero_point=-128
0	0x45	6.1386843
1	0x63	7.073509
2	0x6c	7.3539567
3	0x67	7.1981525
4	0x3f	5.9517193
5	0x53	6.574936
6	0x34	5.60895
7	0x5b	6.8242226
8	0x31	5.5154676
9	0x60	6.9800267
10	0xfe	3.926265
11	0x3f	5.9517193
12	0x68	7.2293134
13	0x57	6.6995792
14	0x40	5.98288
15	0x51	6.5126143
16	0x2c	5.3596635
17	0x43	6.0763626
18	0x54	6.6060967
19	0x11	4.518321
20	0x5d	6.886544
21	0x36	5.671272
22	0x60	6.9800267
23	0x6d	7.3851175
24	0x57	6.6995792
25	0x4b	6.3256493
26	0x33	5.5777893
27	0x57	6.6995792
28	0x6a	7.291635
29	0x58	6.73074
30	0x64	7.10467
31	0x42	6.045202
32	0x56	6.6684184
33	0x64	7.10467
34	0x55	6.6372576
35	0x3c	5.858237
36	0x6b	7.322796
37	0x6f	7.447439
38	0x50	6.4814534
39	0x54	6.6060967
40	0x44	6.1075234
41	0x26	5.1726985
42	0x65	7.135831
43	0x5f	6.948866
44	0x6f	7.447439
45	0x4f	6.4502926
46	0x4c	6.35681
47	0x4b	6.3256493
48	0xef	3.4588525
49	0x7f	7.9460125
50	0x1c	4.86109
51	0x4a	6.2944884
52	0x44	6.1075234
53	0x2e	5.421985
54	0x36	5.671272
55	0x4a	6.2944884
56	0x66	7.1669917
57	0x41	6.014041
58	0x3c	5.858237
59	0x70	7.4786
60	0x2a	5.297342
61	0x32	5.5466285
62	0x57	6.6995792
63	0x32	5.5466285

tfl.pseudo_qconst5 i1 [64, 1, 1, 32]
0	0x1e	30
1	0x01	1
2	0x21	33
3	0xcc	-52
4	0x10	16
5	0xd9	-39
6	0xf8	-8
7	0x35	53
8	0xc6	-58
9	0x46	70
10	0x1a	26
11	0xeb	-21
12	0x25	37
13	0xda	-38
14	0x1e	30
15	0x12	18
16	0xb7	-73
17	0x01	1
18	0x42	66
19	0x46	70
20	0xfa	-6
21	0x2a	42
22	0x7f	127
23	0xad	-83
24	0x54	84
25	0xd4	-44
26	0xf1	-15
27	0x03	3
28	0x4c	76
29	0x5d	93
30	0xf3	-13
31	0x17	23
32	0x41	65
33	0x9f	-97
34	0x33	51
35	0x33	51
36	0x81	-127
37	0xd4	-44
38	0x68	104
39	0x27	39
40	0xba	-70
41	0xbc	-68
42	0xab	-85
43	0xed	-19
44	0x98	-104
45	0x33	51
46	0x21	33
47	0xf3	-13
48	0xea	-22
49	0x46	70
50	0x2f	47
51	0x2b	43
52	0x39	57
53	0xb6	-74
54	0xe1	-31
55	0xdf	-33
56	0x1f	31
57	0x90	-112
58	0xcd	-51
59	0xca	-54
60	0xb5	-75
61	0x07	7
62	0x61	97
63	0x55	85
64	0x10	16
65	0x67	103
66	0x52	82
67	0x55	85
68	0x2f	47
69	0x92	-110
70	0x14	20
71	0x31	49
72	0x6b	107
73	0x64	100
74	0x8b	-117
75	0xef	-17
76	0x9b	-101
77	0xc3	-61
78	0xd0	-48
79	0x40	64
80	0xb3	-77
81	0x7f	127
82	0x3a	58
83	0xa3	-93
84	0xb8	-72
85	0x11	17
86	0x68	104
87	0xcc	-52
88	0x5e	94
89	0x2f	47
90	0x8c	-116
91	0x6c	108
92	0x3f	63
93	0xe0	-32
94	0x1d	29
95	0x2d	45
96	0x9b	-101
97	0x15	21
98	0x26	38
99	0x12	18
100	0x40	64
101	0xfe	-2
102	0xe9	-23
103	0x53	83
104	0x27	39
105	0xeb	-21
106	0xb0	-80
107	0x54	84
108	0x2b	43
109	0x43	67
110	0x41	65
111	0x43	67
112	0x19	25
113	0xd6	-42
114	0x10	16
115	0xf5	-11
116	0xb2	-78
117	0x68	104
118	0x61	97
119	0x81	-127
120	0x6f	111
121	0x06	6
122	0xce	-50
123	0x97	-105
124	0xbd	-67
125	0x06	6
126	0xd0	-48
127	0xa3	-93
128	0xab	-85
129	0xc0	-64
130	0x47	71
131	0xcd	-51
132	0x81	-127
133	0x3c	60
134	0x1a	26
135	0x28	40
136	0x13	19
137	0x17	23
138	0x2a	42
139	0xf3	-13
140	0x46	70
141	0xd7	-41
142	0xd3	-45
143	0x01	1
144	0x04	4
145	0x30	48
146	0x28	40
147	0x45	69
148	0xb8	-72
149	0xd8	-40
150	0xd6	-42
151	0x30	48
152	0xb6	-74
153	0xa3	-93
154	0x15	21
155	0x2b	43
156	0xfb	-5
157	0x06	6
158	0xd2	-46
159	0xf8	-8
160	0xf5	-11
161	0x67	103
162	0x7f	127
163	0xd3	-45
164	0x69	105
165	0x4e	78
166	0x26	38
167	0x3d	61
168	0x39	57
169	0xd4	-44
170	0x9a	-102
171	0xc6	-58
172	0x14	20
173	0xd8	-40
174	0x5f	95
175	0xeb	-21
176	0x10	16
177	0xc4	-60
178	0x2b	43
179	0xa5	-91
180	0x10	16
181	0x64	100
182	0x7c	124
183	0xfe	-2
184	0x42	66
185	0xe8	-24
186	0xe1	-31
187	0xf8	-8
188	0xa7	-89
189	0xd6	-42
190	0x50	80
191	0x3e	62
192	0xe6	-26
193	0xfb	-5
194	0x0f	15
195	0xd4	-44
196	0xec	-20
197	0xb1	-79
198	0xe4	-28
199	0x43	67
200	0x34	52
201	0xdd	-35
202	0xcf	-49
203	0xca	-54
204	0x12	18
205	0x2d	45
206	0x42	66
207	0xc7	-57
208	0xc9	-55
209	0x2c	44
210	0x1f	31
211	0x08	8
212	0x93	-109
213	0x1b	27
214	0x7f	127
215	0x38	56
216	0x2b	43
217	0x05	5
218	0x38	56
219	0xe4	-28
220	0x1d	29
221	0x61	97
222	0x27	39
223	0xe7	-25
224	0xb6	-74
225	0x0e	14
226	0x1f	31
227	0x4b	75
228	0x16	22
229	0xaf	-81
230	0xc4	-60
231	0x46	70
232	0xef	-17
233	0x7f	127
234	0x4f	79
235	0xf4	-12
236	0x71	113
237	0xb2	-78
238	0xa7	-89
239	0x6b	107
240	0x41	65
241	0x7f	127
242	0x79	121
243	0xdf	-33
244	0xbe	-66
245	0x1b	27
246	0x5a	90
247	0xbb	-69
248	0x63	99
249	0xec	-20
250	0x99	-103
251	0xa3	-93
252	0x96	-106
253	0x29	41
254	0xfd	-3
255	0x8d	-115

tfl.pseudo_qconst7 i1 [1, 1, 9, 32]
0	0xc9	-55
1	0xef	-17
2	0xb6	-74
3	0xb4	-76
4	0xb1	-79
5	0xf1	-15
6	0x7c	124
7	0x60	96
8	0x37	55
9	0x8f	-113
10	0x5c	92
11	0xb1	-79
12	0x06	6
13	0x19	25
14	0x6e	110
15	0x47	71
16	0x09	9
17	0x40	64
18	0x24	36
19	0x51	81
20	0x3e	62
21	0x04	4
22	0x6f	111
23	0x61	97
24	0xcc	-52
25	0x32	50
26	0x55	85
27	0x5a	90
28	0x31	49
29	0xf4	-12
30	0x81	-127
31	0xc6	-58
32	0x01	1
33	0xd1	-47
34	0x9a	-102
35	0x6c	108
36	0xdd	-35
37	0xda	-38
38	0x1f	31
39	0x57	87
40	0x9a	-102
41	0xa5	-91
42	0xe0	-32
43	0x5e	94
44	0xbc	-68
45	0x40	64
46	0x7f	127
47	0x1f	31
48	0x7f	127
49	0x92	-110
50	0xb9	-71
51	0xe0	-32
52	0xe7	-25
53	0xeb	-21
54	0x45	69
55	0x70	112
56	0xc1	-63
57	0xe2	-30
58	0x81	-127
59	0x04	4
60	0x1d	29
61	0x7f	127
62	0x67	103
63	0x59	89
64	0x81	-127
65	0xaa	-86
66	0x29	41
67	0x48	72
68	0xc5	-59
69	0x41	65
70	0x51	81
71	0x57	87
72	0x31	49
73	0x85	-123
74	0xe1	-31
75	0x3e	62
76	0x97	-105
77	0xf5	-11
78	0xbe	-66
79	0xa9	-87
80	0x14	20
81	0xa7	-89
82	0x50	80
83	0x50	80
84	0x7c	124
85	0x8d	-115
86	0x1d	29
87	0xda	-38
88	0xda	-38
89	0x4f	79
90	0x8c	-116
91	0xc5	-59
92	0x04	4
93	0x49	73
94	0xae	-82
95	0x7f	127
96	0x51	81
97	0x0f	15
98	0xc0	-64
99	0x83	-125
100	0xcc	-52
101	0xc2	-62
102	0x53	83
103	0x3c	60
104	0x33	51
105	0x81	-127
106	0x7e	126
107	0xfc	-4
108	0xf0	-16
109	0x1e	30
110	0x2c	44
111	0xa2	-94
112	0xcb	-53
113	0x00	0
114	0x27	39
115	0x47	71
116	0xd1	-47
117	0x9a	-102
118	0x67	103
119	0xa3	-93
120	0xe5	-27
121	0x05	5
122	0xed	-19
123	0x56	86
124	0x92	-110
125	0x3e	62
126	0xe4	-28
127	0x44	68
128	0xe5	-27
129	0x6b	107
130	0x97	-105
131	0x86	-122
132	0xa3	-93
133	0xb6	-74
134	0x07	7
135	0x17	23
136	0x81	-127
137	0xcd	-51
138	0x83	-125
139	0x39	57
140	0x4a	74
141	0x0b	11
142	0xaa	-86
143	0x5e	94
144	0x9e	-98
145	0xc9	-55
146	0x4f	79
147	0xff	-1
148	0xd6	-42
149	0x39	57
150	0x7f	127
151	0xe3	-29
152	0xc9	-55
153	0x14	20
154	0x31	49
155	0xa7	-89
156	0xd3	-45
157	0xd7	-41
158	0xba	-70
159	0xf1	-15
160	0xf5	-11
161	0x04	4
162	0xec	-20
163	0x1d	29
164	0x00	0
165	0x4c	76
166	0x26	38
167	0x33	51
168	0x38	56
169	0x29	41
170	0x7f	127
171	0xad	-83
172	0x3c	60
173	0x09	9
174	0x67	103
175	0x41	65
176	0xdf	-33
177	0x5e	94
178	0xbb	-69
179	0x7f	127
180	0x1a	26
181	0x81	-127
182	0x40	64
183	0x7f	127
184	0x70	112
185	0x81	-127
186	0xd1	-47
187	0xbc	-68
188	0x39	57
189	0xd3	-45
190	0xdb	-37
191	0x4e	78
192	0x1a	26
193	0x03	3
194	0xd8	-40
195	0x19	25
196	0x81	-127
197	0xa7	-89
198	0x95	-107
199	0x7f	127
200	0xd0	-48
201	0x68	104
202	0x95	-107
203	0x88	-120
204	0x93	-109
205	0x17	23
206	0x15	21
207	0x51	81
208	0x53	83
209	0x81	-127
210	0xe9	-23
211	0xaa	-86
212	0xbf	-65
213	0xa3	-93
214	0x2a	42
215	0x56	86
216	0xa8	-88
217	0x7b	123
218	0x04	4
219	0x7f	127
220	0x9a	-102
221	0x32	50
222	0x7b	123
223	0x5e	94
224	0x30	48
225	0x2f	47
226	0xaf	-81
227	0x7b	123
228	0xb9	-71
229	0xc8	-56
230	0x9f	-97
231	0x0d	13
232	0x61	97
233	0xdf	-33
234	0x77	119
235	0xd2	-46
236	0x45	69
237	0x7f	127
238	0x61	97
239	0xa3	-93
240	0xe9	-23
241	0x12	18
242	0x81	-127
243	0x7e	126
244	0x7f	127
245	0x06	6
246	0x45	69
247	0x47	71
248	0x81	-127
249	0x25	37
250	0x50	80
251	0x35	53
252	0x7f	127
253	0x70	112
254	0x04	4
255	0xfd	-3

tfl.pseudo_qconst8 i1 [32] scale=0.0022473752 zero_point=127
0	0xea	-0.3348589
1	0x5a	-0.08315288
2	0x49	-0.12135826
3	0x46	-0.12810038
4	0xde	-0.3618274
5	0x94	-0.52813315
6	0x0d	-0.25620076
7	0x80	-0.57308066
8	0x58	-0.08764763
9	0x10	-0.24945864
10	0xb6	-0.4517224
11	0x51	-0.10337926
12	0x2b	-0.18877952
13	0x1e	-0.21799539
14	0x23	-0.20675851
15	0x64	-0.06067913
16	0x0f	-0.25170603
17	0x3f	-0.14383201
18	0x1f	-0.21574801
19	0x4d	-0.11236876
20	0xd6	-0.3798064
21	0x16	-0.2359744
22	0x29	-0.19327427
23	0x3d	-0.14832677
24	0xfd	-0.29215878
25	0x9b	-0.5124015
26	0x47	-0.12585302
27	0x59	-0.08540026
28	0x3e	-0.14607939
29	0xb9	-0.4449803
30	0x23	-0.20675851
31	0x0c	-0.25844815

tfl.pseudo_qconst9 i1 [32] scale=0.031823926 zero_point=-128
0	0x61	7.160383
1	0x19	4.8690605
2	0x0a	4.3917017
3	0xf8	3.818871
4	0x76	7.8286858
5	0x56	6.81032
6	0x7d	8.051454
7	0x73	7.733214
8	0x21	5.123652
9	0x5d	7.0330877
10	0x5a	6.937616
11	0xdc	2.9278011
12	0xf8	3.818871
13	0x5d	7.0330877
14	0x16	4.7735887
15	0x28	5.3464193
16	0x2e	5.537363
17	0xd8	2.8005054
18	0x5b	6.9694395
19	0x38	5.8556023
20	0x29	5.3782434
21	0x4a	6.428433
22	0x7f	8.115101
23	0xf4	3.6915753
24	0x12	4.646293
25	0x5f	7.0967355
26	0xf7	3.7870471
27	0x13	4.6781173
28	0x00	4.0734625
29	0x62	7.1922073
30	0xd5	2.7050338
31	0x59	6.9057918

tfl.pseudo_qconst11 i1 [32, 1, 1, 16]
0	0x60	96
1	0x37	55
2	0xee	-18
3	0xe8	-24
4	0xf2	-14
5	0x01	1
6	0x00	0
7	0xa2	-94
8	0xef	-17
9	0xc7	-57
10	0x01	1
11	0x34	52
12	0x8c	-116
13	0x7f	127
14	0x6b	107
15	0xa1	-95
16	0x52	82
17	0xa8	-88
18	0x75	117
19	0x00	0
20	0x5b	91
21	0x43	67
22	0x81	-127
23	0xee	-18
24	0xba	-70
25	0xa2	-94
26	0xe5	-27
27	0x78	120
28	0x37	55
29	0xf1	-15
30	0x14	20
31	0x50	80
32	0x38	56
33	0xbb	-69
34	0xe2	-30
35	0x55	85
36	0x7e	126
37	0x87	-121
38	0x7f	127
39	0x73	115
40	0xac	-84
41	0xd1	-47
42	0x02	2
43	0x3f	63
44	0x2c	44
45	0xd7	-41
46	0x2c	44
47	0xaa	-86
48	0x71	113
49	0x8b	-117
50	0x52	82
51	0x6e	110
52	0x46	70
53	0x7f	127
54	0x38	56
55	0xf0	-16
56	0xaf	-81
57	0x01	1
58	0x3e	62
59	0xe1	-31
60	0x14	20
61	0x15	21
62	0x1b	27
63	0xb1	-79
64	0xdc	-36
65	0x22	34
66	0xe0	-32
67	0x92	-110
68	0x13	19
69	0x81	-127
70	0x31	49
71	0x01	1
72	0x63	99
73	0x6c	108
74	0x71	113
75	0x68	104
76	0x8a	-118
77	0x2c	44
78	0x4b	75
79	0xc8	-56
80	0xd1	-47
81	0xd0	-48
82	0x78	120
83	0x51	81
84	0x32	50
85	0x83	-125
86	0x02	2
87	0xf3	-13
88	0x5e	94
89	0x54	84
90	0x49	73
91	0xf8	-8
92	0xbe	-66
93	0x7f	127
94	0xa8	-88
95	0x44	68
96	0x01	1
97	0x17	23
98	0xde	-34
99	0x2a	42
100	0x21	33
101	0xf3	-13
102	0x02	2
103	0xbd	-67
104	0xc6	-58
105	0x16	22
106	0xbe	-66
107	0xd0	-48
108	0x43	67
109	0x7f	127
110	0x2f	47
111	0x00	0
112	0x96	-106
113	0x77	119
114	0x31	49
115	0x62	98
116	0xce	-50
117	0xd9	-39
118	0xa9	-87
119	0xb1	-79
120	0xc7	-57
121	0x77	119
122	0xf1	-15
123	0xd9	-39
124	0xad	-83
125	0x7f	127
126	0x3b	59
127	0xa2	-94
128	0x7f	127
129	0x02	2
130	0x22	34
131	0xb5	-75
132	0xd9	-39
133	0x6b	107
134	0x26	38
135	0xdf	-33
136	0xad	-83
137	0xd2	-46
138	0xad	-83
139	0x75	117
140	0xac	-84
141	0xf2	-14
142	0x5e	94
143	0x16	22
144	0x00	0
145	0xe4	-28
146	0x65	101
147	0xe8	-24
148	0xd3	-45
149	0x81	-127
150	0xf2	-14
151	0x49	73
152	0xb0	-80
153	0xec	-20
154	0x48	72
155	0xa6	-90
156	0x00	0
157	0x02	2
158	0x4c	76
159	0x63	99
160	0xbe	-66
161	0xee	-18
162	0xff	-1
163	0x05	5
164	0x9d	-99
165	0xeb	-21
166	0xad	-83
167	0xa9	-87
168	0xbd	-67
169	0x16	22
170	0x1e	30
171	0x10	16
172	0xc8	-56
173	0x7f	127
174	0xba	-70
175	0x3a	58
176	0x96	-106
177	0x3e	62
178	0xe6	-26
179	0x4a	74
180	0xc7	-57
181	0xd2	-46
182	0xd1	-47
183	0x00	0
184	0xc8	-56
185	0x44	68
186	0x53	83
187	0xeb	-21
188	0x7f	127
189	0x9d	-99
190	0xf7	-9
191	0x74	116
192	0xd0	-48
193	0xb3	-77
194	0x41	65
195	0x7f	127
196	0xb0	-80
197	0x14	20
198	0xad	-83
199	0x06	6
200	0xc1	-63
201	0xad	-83
202	0xf9	-7
203	0x5a	90
204	0x3c	60
205	0xc4	-60
206	0x59	89
207	0xe9	-23
208	0x10	16
209	0x19	25
210	0x12	18
211	0x81	-127
212	0xbf	-65
213	0xbf	-65
214	0x41	65
215	0x4a	74
216	0x4d	77
217	0xcf	-49
218	0x02	2
219	0x3e	62
220	0x87	-121
221	0x3d	61
222	0xa6	-90
223	0x48	72
224	0x6f	111
225	0xa0	-96
226	0x4d	77
227	0xd5	-43
228	0x7f	127
229	0xfd	-3
230	0x05	5
231	0x42	66
232	0x0a	10
233	0x79	121
234	0xaa	-86
235	0x04	4
236	0x8e	-114
237	0xd4	-44
238	0xb9	-71
239	0x6f	111
240	0x9e	-98
241	0x05	5
242	0x3c	60
243	0x5a	90
244	0xa0	-96
245	0xd9	-39
246	0x81	-127
247	0xb6	-74
248	0xf9	-7
249	0xdf	-33
250	0x3f	63
251	0xc7	-57
252	0xe8	-24
253	0xc2	-62
254	0xfa	-6
255	0x38	56

tfl.pseudo_qconst13 i1 [1, 1, 9, 16]
0	0x5a	90
1	0xed	-19
2	0xe4	-28
3	0x15	21
4	0xe3	-29
5	0x51	81
6	0x3a	58
7	0x52	82
8	0xb6	-74
9	0x7f	127
10	0x8d	-115
11	0x6c	108
12	0x5d	93
13	0x81	-127
14	0x2a	42
15	0xa8	-88
16	0xcb	-53
17	0x58	88
18	0xa4	-92
19	0x68	104
20	0xb9	-71
21	0x7b	123
22	0xca	-54
23	0x0c	12
24	0x61	97
25	0xf3	-13
26	0xf5	-11
27	0x1c	28
28	0xad	-83
29	0xcb	-53
30	0xd3	-45
31	0xb2	-78
32	0x7f	127
33	0xc6	-58
34	0x81	-127
35	0x66	102
36	0x43	67
37	0x7f	127
38	0x9d	-99
39	0x7f	127
40	0x6a	106
41	0xb2	-78
42	0x4f	79
43	0x67	103
44	0x39	57
45	0xef	-17
46	0x06	6
47	0x6f	111
48	0x51	81
49	0x97	-105
50	0xe5	-27
51	0x05	5
52	0xab	-85
53	0x1b	27
54	0x3a	58
55	0x26	38
56	0x83	-125
57	0xa4	-92
58	0x06	6
59	0xc9	-55
60	0x30	48
61	0xae	-82
62	0xf7	-9
63	0xea	-22
64	0x2e	46
65	0xc5	-59
66	0xe3	-29
67	0x48	72
68	0x45	69
69	0x07	7
70	0x21	33
71	0x6b	107
72	0x05	5
73	0x0a	10
74	0x81	-127
75	0x51	81
76	0x5e	94
77	0x96	-106
78	0x81	-127
79	0x5e	94
80	0x21	33
81	0x2a	42
82	0x3c	60
83	0xeb	-21
84	0xa7	-89
85	0x3b	59
86	0x52	82
87	0x8c	-116
88	0x3c	60
89	0x07	7
90	0x5d	93
91	0x13	19
92	0xa1	-95
93	0xa9	-87
94	0x8b	-117
95	0xb3	-77
96	0xb8	-72
97	0xf0	-16
98	0x25	37
99	0xdc	-36
100	0x7f	127
101	0x30	48
102	0x1e	30
103	0x6b	107
104	0x81	-127
105	0x7b	123
106	0xc9	-55
107	0x04	4
108	0xc5	-59
109	0xd8	-40
110	0xd6	-42
111	0x5b	91
112	0x9f	-97
113	0x7f	127
114	0x1a	26
115	0x57	87
116	0x72	114
117	0x5d	93
118	0x83	-125
119	0x3d	61
120	0x3f	63
121	0x06	6
122	0xe7	-25
123	0xf8	-8
124	0x7f	127
125	0x22	34
126	0x19	25
127	0x0d	13
128	0xa2	-94
129	0x71	113
130	0xe8	-24
131	0x7f	127
132	0x19	25
133	0xfe	-2
134	0x7f	127
135	0x51	81
136	0x1f	31
137	0xc6	-58
138	0x12	18
139	0x7f	127
140	0x3a	58
141	0x95	-107
142	0x0e	14
143	0x7f	127

tfl.pseudo_qconst14 i1 [16] scale=0.0018170566 zero_point=123
0	0x17	-0.18170565
1	0x80	-0.45608118
2	0x43	-0.101755165
3	0x2c	-0.14354748
4	0x72	-0.016353508
5	0x5f	-0.050877582
6	0x44	-0.09993811
7	0x71	-0.018170565
8	0x3e	-0.11084045
9	0x7f	0.0072682262
10	0x7e	0.00545117
11	0x54	-0.07086521
12	0x06	-0.21259561
13	0x66	-0.03815819
14	0x6b	-0.029072905
15	0x5f	-0.050877582

tfl.pseudo_qconst15 i1 [16] scale=0.030534685 zero_point=-128
0	0x6c	7.2061853
1	0x6a	7.1451163
2	0x6e	7.267255
3	0x6b	7.175651
4	0x63	6.9313736
5	0x67	7.053512
6	0x72	7.389394
7	0x68	7.084047
8	0x5e	6.7787
9	0x65	6.9924426
10	0x64	6.9619083
11	0x6d	7.23672
12	0x6e	7.267255
13	0x7f	7.7863445
14	0x6a	7.1451163
15	0x5f	6.8092346

tfl.pseudo_qconst17 i1 [16, 1, 9, 1]
0	0x15	21
1	0x99	-103
2	0xcb	-53
3	0x81	-127
4	0x0e	14
5	0x1b	27
6	0xf5	-11
7	0xce	-50
8	0x2f	47
9	0xe9	-23
10	0x9a	-102
11	0x3b	59
12	0x81	-127
13	0xab	-85
14	0x91	-111
15	0x54	84
16	0x79	121
17	0x1d	29
18	0xc5	-59
19	0x27	39
20	0x03	3
21	0x1b	27
22	0x91	-111
23	0x81	-127
24	0x17	23
25	0x03	3
26	0xf5	-11
27	0xf8	-8
28	0xdf	-33
29	0x4d	77
30	0xe1	-31
31	0x4e	78
32	0x35	53
33	0x60	96
34	0x7f	127
35	0xc8	-56
36	0xf8	-8
37	0xbf	-65
38	0x51	81
39	0x6c	108
40	0x57	87
41	0xa5	-91
42	0x7f	127
43	0x25	37
44	0x94	-108
45	0x7f	127
46	0x10	16
47	0x22	34
48	0x76	118
49	0xc6	-58
50	0xcd	-51
51	0x6f	111
52	0x53	83
53	0x4d	77
54	0x63	99
55	0xd9	-39
56	0x3a	58
57	0x82	-126
58	0xb6	-74
59	0x48	72
60	0xbd	-67
61	0xb8	-72
62	0x7f	127
63	0x7d	125
64	0x52	82
65	0x07	7
66	0x7f	127
67	0x5d	93
68	0xe6	-26
69	0x0d	13
70	0x53	83
71	0x2e	46
72	0x81	-127
73	0x95	-107
74	0x7d	125
75	0xeb	-21
76	0xb4	-76
77	0x20	32
78	0xd4	-44
79	0xe4	-28
80	0x26	38
81	0x55	85
82	0x6a	106
83	0x26	38
84	0xd9	-39
85	0x03	3
86	0x81	-127
87	0xac	-84
88	0xaf	-81
89	0x6d	109
90	0x1e	30
91	0xae	-82
92	0x37	55
93	0x0f	15
94	0x49	73
95	0x05	5
96	0x7f	127
97	0xe0	-32
98	0xd4	-44
99	0xbd	-67
100	0xe4	-28
101	0xf5	-11
102	0xe1	-31
103	0xaa	-86
104	0xd2	-46
105	0x31	49
106	0x81	-127
107	0xcc	-52
108	0xad	-83
109	0xed	-19
110	0xbd	-67
111	0x31	49
112	0x07	7
113	0x7f	127
114	0x38	56
115	0x3d	61
116	0x0c	12
117	0xdc	-36
118	0xf7	-9
119	0x81	-127
120	0x09	9
121	0x9b	-101
122	0x99	-103
123	0xa9	-87
124	0xda	-38
125	0xc2	-62
126	0x81	-127
127	0xba	-70
128	0xd6	-42
129	0x16	22
130	0xa3	-93
131	0xff	-1
132	0x6d	109
133	0xbf	-65
134	0xa3	-93
135	0x81	-127
136	0xbc	-68
137	0x90	-112
138	0xbd	-67
139	0xf4	-12
140	0x20	32
141	0xa6	-90
142	0x10	16
143	0xc7	-57
